==========================================================================================
Layer (type:depth-idx)                   Output Shape              Param #
==========================================================================================
├─PInvBlock: 1-1                         [-1, 1, 513, 256]         --
├─ContractingBlock: 1-2                  [-1, 32, 256, 128]        --
|    └─Conv2d: 2-1                       [-1, 32, 513, 256]        320
|    └─BatchNorm2d: 2-2                  [-1, 32, 513, 256]        64
|    └─ReLU: 2-3                         [-1, 32, 513, 256]        --
|    └─Conv2d: 2-4                       [-1, 32, 513, 256]        9,248
|    └─BatchNorm2d: 2-5                  [-1, 32, 513, 256]        64
|    └─ReLU: 2-6                         [-1, 32, 513, 256]        --
|    └─MaxPool2d: 2-7                    [-1, 32, 256, 128]        --
|    └─Conv2d: 2-8                       [-1, 64, 256, 128]        18,496
|    └─ReLU: 2-9                         [-1, 64, 256, 128]        --
├─ContractingBlock: 1-3                  [-1, 64, 128, 64]         --
|    └─Conv2d: 2-10                      [-1, 64, 256, 128]        18,496
|    └─BatchNorm2d: 2-11                 [-1, 64, 256, 128]        128
|    └─ReLU: 2-12                        [-1, 64, 256, 128]        --
|    └─Conv2d: 2-13                      [-1, 64, 256, 128]        36,928
|    └─BatchNorm2d: 2-14                 [-1, 64, 256, 128]        128
|    └─ReLU: 2-15                        [-1, 64, 256, 128]        --
|    └─MaxPool2d: 2-16                   [-1, 64, 128, 64]         --
|    └─Conv2d: 2-17                      [-1, 128, 128, 64]        73,856
|    └─ReLU: 2-18                        [-1, 128, 128, 64]        --
├─ContractingBlock: 1-4                  [-1, 128, 128, 64]        --
|    └─Conv2d: 2-19                      [-1, 128, 128, 64]        73,856
|    └─BatchNorm2d: 2-20                 [-1, 128, 128, 64]        256
|    └─ReLU: 2-21                        [-1, 128, 128, 64]        --
|    └─Conv2d: 2-22                      [-1, 128, 128, 64]        147,584
|    └─BatchNorm2d: 2-23                 [-1, 128, 128, 64]        256
|    └─ReLU: 2-24                        [-1, 128, 128, 64]        --
├─ExpandingBlock: 1-5                    [-1, 64, 256, 128]        --
|    └─Upsample: 2-25                    [-1, 256, 256, 128]       --
|    └─Conv2d: 2-26                      [-1, 128, 256, 128]       295,040
|    └─BatchNorm2d: 2-27                 [-1, 128, 256, 128]       256
|    └─ReLU: 2-28                        [-1, 128, 256, 128]       --
|    └─Conv2d: 2-29                      [-1, 64, 256, 128]        73,792
|    └─BatchNorm2d: 2-30                 [-1, 64, 256, 128]        128
|    └─ReLU: 2-31                        [-1, 64, 256, 128]        --
|    └─Dropout: 2-32                     [-1, 64, 256, 128]        --
├─ExpandingBlock: 1-6                    [-1, 32, 512, 256]        --
|    └─Upsample: 2-33                    [-1, 128, 512, 256]       --
|    └─Conv2d: 2-34                      [-1, 64, 512, 256]        73,792
|    └─BatchNorm2d: 2-35                 [-1, 64, 512, 256]        128
|    └─ReLU: 2-36                        [-1, 64, 512, 256]        --
|    └─Conv2d: 2-37                      [-1, 32, 512, 256]        18,464
|    └─BatchNorm2d: 2-38                 [-1, 32, 512, 256]        64
|    └─ReLU: 2-39                        [-1, 32, 512, 256]        --
|    └─Dropout: 2-40                     [-1, 32, 512, 256]        --
├─OutBlock: 1-7                          [-1, 1, 513, 256]         --
|    └─Conv2d: 2-41                      [-1, 16, 513, 256]        3,088
|    └─ReLU: 2-42                        [-1, 16, 513, 256]        --
|    └─Conv2d: 2-43                      [-1, 1, 513, 256]         17
|    └─ReLU: 2-44                        [-1, 1, 513, 256]         --
==========================================================================================
Total params: 844,449
Trainable params: 844,449
Non-trainable params: 0
Total mult-adds (G): 30.65
==========================================================================================
Input size (MB): 0.09
Forward/backward pass size (MB): 553.28
Params size (MB): 3.22
Estimated Total Size (MB): 556.60
…
